models/LSTM v3/darts_logs/Air_RNN/checkpoints/last-epoch=299.ckpt (torch, 165296 bytes, 30 tensors)

rnn.weight_ih_l0 f8 [80, 13]
00000000: fc97 896a 5b16 c43f 5305 28ab 40da 8d3f
00000010: 304c 0a11 72c4 bebf 310c e02c 22ca b83f
00000020: 7084 5380 ce8e d13f 4028 8f92 5207 d33f
00000030: 9ca6 454b 9c90 c33f 7e31 acb9 31a4 e03f
00000040: b22d 80c8 263c a7bf b749 8539 c0c9 d53f
00000050: 8962 e55a 1fad d83f c551 b667 2b68 b73f
00000060: 9593 52ac c589 9ebf 1e68 e9c1 de5e c23f
00000070: e135 5703 3d87 d03f 20a3 9ef0 ed10 da3f
00000080: f4d0 c3ad ee91 d73f 3246 f7cf 47e0 ca3f
00000090: d3bc 54c1 6596 b03f d74f a1a1 3d44 d03f
000000a0: 1de5 7423 dac7 a03f 3319 4c46 a6da a43f
000000b0: efc4 9578 d236 b13f 2442 95a5 05a3 c33f
000000c0: 9241 5521 33ff cebf 6809 0bca 5e5c 60bf
000000d0: f804 2e32 7b5e c13f b1bf b5d7 f9a5 b53f
000000e0: 63f1 6670 a959 b1bf b273 0e51 2b83 7d3f
000000f0: 4954 395a 774e b2bf 801c f5af 45b3 c43f
00000100: b69e c405 da71 a2bf 8ecc 0456 ba2d 9c3f
00000110: 0bcf 4392 bf78 b6bf 5e90 4b80 90b1 b43f
00000120: 2ed7 0104 8016 9bbf b399 2a43 c091 93bf
00000130: 402a e6a5 aea7 7e3f df0b 95aa 9dd9 aa3f
00000140: fcd5 ae2b 3043 b1bf 196a d2bd c9d5 babf
00000150: dc72 44b8 ebb7 b93f 2539 0634 c4e0 c83f
00000160: e04c 9d9f 715b c0bf dba0 27c9 eaae 783f
00000170: 1cfd 205a 4361 cd3f fa21 53fa 94b3 c63f
00000180: 57ec 9f21 c8b2 a83f c624 de84 361c c53f
00000190: 1a9a 84f5 2287 843f 2781 4a7e 0c36 a93f
000001a0: b0e6 5a4a efb5 da3f e794 ca0e d021 d33f
000001b0: 6dda 5f3e ce38 c83f 6faa 3980 6d38 cb3f
000001c0: 9208 aa8d e6f1 993f 9e08 04d3 60ba c53f
000001d0: d3dc 20e6 4f26 d13f a739 a304 012a b63f
000001e0: 5850 b2bf e96e d73f 8c90 7cc3 0d0a b13f
000001f0: 79f5 108d cde9 cf3f 3748 9fed 19b6 d93f
00000200: 8d0a c82f f88c c2bf 1b39 b802 d423 d93f
00000210: 6490 23f9 581b d03f 51c8 561f 691b ca3f
00000220: bb69 f3f7 dc20 cf3f 57b2 5c1f 87c3 b53f
00000230: bfc4 3b12 ae01 dc3f c9b4 6f38 4ac5 d43f
00000240: 83ce ef0e 16c5 d83f 61c1 c5d3 8a54 8bbf
00000250: 3135 b6e2 3eb6 a03f 580d 8af5 c8b6 cd3f
00000260: e822 e713 50fb d63f 5910 2dfd afc4 a3bf
00000270: 2072 28e5 298c d33f 33ab 892a 6d4c e23f
00000280: 8cd4 9193 a9f5 d33f 2017 366d 290b d33f
00000290: 3a08 8d48 b822 d53f 4fbb 9819 ceae e13f
000002a0: 4cc8 1fb9 51ef d33f 9550 06f6 6151 8ebf
000002b0: b033 b798 65e4 d83f a953 b8d6 904a d63f
000002c0: ef83 f275 cf34 d43f 2de8 1c05 9630 e63f
000002d0: dbe0 01c9 3caa cb3f 9097 3913 19eb bb3f
000002e0: 7913 a5c0 ff94 c93f 7700 65f3 60e6 e13f
000002f0: 556f 859e 6af0 c13f e045 0a97 6f59 c93f
00000300: 37d7 e329 9b46 cd3f 90fa 61d5 9213 d53f
00000310: a26b 7013 fa02 e33f 6f1a 32eb 0a47 d53f
00000320: 71dc 4985 0e0a cf3f 8e0b 96df bd65 c73f
00000330: c43b 241e 0291 b53f 0406 24c5 f1ca 8abf
00000340: 1329 40f1 f71e ce3f 1764 0f2b 42bf d83f
00000350: 19f5 c3f6 befb 94bf c7cd 20b8 92cb dc3f
00000360: cc6a 7889 02a9 c43f 214c 523f 9196 9e3f
00000370: 05b7 bf1d f632 c43f 39ad 5a1d 0c53 9e3f
00000380: ea2e ca3c aad0 cd3f 1f86 a09f 6650 b73f
00000390: a558 e99f 936d d23f 4e41 51f4 7501 d13f
000003a0: 16d7 7ee7 c8b9 b1bf 51b1 f389 f725 c83f
000003b0: bd6b e0e1 7455 ca3f ee16 6392 8479 be3f
000003c0: cdba 1cb6 4d28 d13f 87e6 f63f 41cc b6bf
000003d0: 2d97 7c56 3cb7 863f c887 7c03 f84e b33f
000003e0: 7b70 d732 9b38 c7bf 03c4 f9b5 8d63 b1bf
000003f0: 5452 961f 5dd1 cc3f 5e66 0e68 9480 a93f
00000400: 2204 1b0b a5e0 7e3f 1b03 2075 5964 c3bf
00000410: 7a9a 4984 1b69 d93f ad14 8f03 f012 d33f
00000420: b862 ebd4 abd0 a33f 3b95 4042 b668 c73f
00000430: 55c2 9251 33ee d53f 2926 88d1 41c0 cf3f
00000440: a630 0793 0e0d 8e3f ee82 4d36 9f5d e13f
00000450: 959a 7f2c 78f3 c43f c6e2 1462 01f8 d43f
00000460: 5fae 664e aba6 a63f 3e28 fda7 4b83 de3f
00000470: ba0a ec0f 70a6 c03f 140b 27a3 5c94 813f
00000480: ef93 8050 c0a6 a53f fcff 4233 94a4 b8bf
00000490: 1b20 bff5 ee0d ce3f 9b8b c3d5 2be9 d43f
000004a0: 5b53 5e7d 1a2b adbf 5312 0def e64e cc3f
000004b0: 9ea3 a269 f436 d83f 91d9 5f57 e3f4 c2bf
000004c0: b4c1 5491 9d4e 3ebf a03d 1512 92a1 c33f
000004d0: bbff c7db 9087 d43f 6542 6f30 03f4 c6bf
000004e0: 542d 1c29 8d49 cf3f 29ce 0453 9f9b d23f
000004f0: 9272 0a06 95b4 a7bf 2b60 823f 4824 c53f
00000500: 49fa c0e9 c828 cd3f 74b2 9dd5 a32b 93bf
00000510: 3733 03e5 2541 d53f 6710 c2a6 9c6c cebf
00000520: aa86 0d8e b5af 7d3f 5e29 6e24 575c d03f
00000530: ca4d 9c0d 87b2 bc3f 2cd6 74df 0fc0 d1bf
00000540: c77a 833a 63d8 bf3f f04c 330d 94c7 d23f
00000550: 6b82 466c ac11 c43f e24f 5b37 004f d13f
00000560: 976b f537 383b a9bf c6da 87df 3872 c73f
00000570: d399 8ce3 05a8 d33f fd66 7e44 62de 86bf
00000580: 89e2 3e2f 41f9 c73f 185a ffbc 4757 b3bf
00000590: 5f2e b060 f14c a1bf 0219 03db 933a a7bf
000005a0: f149 4282 9c98 ce3f 8a2d 859e 96eb bfbf
000005b0: 198d 3af1 fc32 a93f aa5e c108 6cab cd3f
000005c0: 2fc3 0e2d ae7d d73f 7f51 e27e 3d7e d13f
000005d0: 648b 7aad a0fa c53f 3433 8f7f 1394 a2bf
000005e0: 5f3d 636d 7122 51bf fa54 ab72 62d6 c6bf
000005f0: f6ea 69db 907a d63f 9320 3434 c3dd d03f
00000600: 63a0 662c 5384 c13f 38a3 75c9 d9b1 c23f
00000610: 4fbe 3111 b765 d13f b7ed 751e 651d bfbf
00000620: e7a8 fe97 405a 81bf 7daa d326 29c6 e53f
00000630: 4fcc 3760 f1ec c83f 9450 a76f 01ac c5bf
00000640: d972 3f14 dd7d bf3f 986a 1f1c a4fc c9bf
00000650: 60ec 0d37 4751 c83f 8403 02b1 4024 c93f
00000660: 7c3b ef2c 09d7 b73f 79a4 fd54 3f1a b33f
00000670: 26fb fa9c 216a 8b3f 7530 af87 2c04 d63f
00000680: 0c8a 0336 a422 a73f 627f b0d9 f33c 90bf
00000690: 3e5b f582 3189 8b3f f404 3b7b e6f3 8bbf
000006a0: 42fc a8bf dd16 b73f 982a 46cc aba7 7ebf
000006b0: 87b4 6e9a 000a d63f 11ba 2f22 b00a cd3f
000006c0: a956 411d d38c 983f 7cea cb7b 18fb bc3f
000006d0: c5de 3d13 47d9 d03f 12ec b01c 20f3 ca3f
000006e0: 1d7a 6a8f 9cca 8abf 03fb f291 867d c63f
000006f0: c1d4 e599 70ac d23f 77e5 8ed8 b5e4 a2bf
00000700: 1651 5a18 b251 bc3f a595 1568 607b dc3f
00000710: 312d 8ba7 f791 c13f 5f22 a155 3877 c33f
00000720: 6f38 8595 e4df 503f 8075 716f 58da df3f
00000730: 054e e23c 5b66 d53f d565 0313 bec3 d13f
00000740: 216d ee4e 8ca3 de3f 6469 c5cf 96aa c73f
00000750: 98e6 1544 7cb7 d23f bc6d 3618 e025 a5bf
00000760: 1d8f 14e0 19f8 9a3f cab9 6f93 0f71 c13f
00000770: 98ec 3de7 74d8 d13f 1214 94a4 6b6e 8bbf
00000780: e759 cad8 d46c d33f 610d e241 c4c3 9cbf
00000790: 4149 0649 6971 c53f 23dd 0e8c ca39 c83f
000007a0: cf1a 0836 c133 adbf cf6c 2f10 ba30 c93f
000007b0: 16f5 3c19 32b6 c03f b4f1 3f7a 355f ca3f
000007c0: b58f ecac 6fad d23f 714c d5b3 c0af d73f
000007d0: c4c4 c796 2dba d53f 26e6 d4c6 78e8 a93f
000007e0: 7e1b 6043 c567 d23f 9271 6d86 126f d83f
000007f0: 4296 075c a896 bd3f 6e1c 743d 523f d83f
0.15693228437447704 0.014576440070416174 -0.12018502155324096 0.09683431239686581 0.27434122592791876 0.2973219329111352 0.15285066295046057 0.5200432421129759
-0.04538079450147893 0.340438896343723 0.3855665576607313 0.09143325120960018 -0.02982243408463921 0.14352020710322305 0.25825429273831274 0.4072832917977838
0.36828200310925685 0.20996949820123373 0.06479488344187993 0.2541650846881089 0.03277475054569321 0.04073066337700695 0.06724276966066943 0.15341253838643454
-0.24216307761754458 -0.0019971705772558364 0.13569583845313793 0.08456384197574952 -0.06777438158218767 0.0072051708274586835 -0.07150979950650184 0.1617209538619342
-0.036024869159800785 0.027518187999885195 -0.08777997322959778 0.08083441860395754 -0.026453018421725698 -0.01911068353606433 0.0074841329755011565 0.05244152743627927
-0.0674314600608667 -0.10482464680027483 0.10046265839305185 0.19435932674645887 -0.1277906445853665 0.006026188976172099 0.22953073407004687 0.17735540602576788
0.04823899660547031 0.1649234913605026 0.010023377530683542 0.04924048463476743 0.41735441457022215 0.2989387649962069 0.18923357053400328 0.2126595378970992
0.025336840054031536 0.16975031188491568 0.2679633853289946 0.08657842982504481 0.3661445972477444 0.06655965826627347 0.24932259929657244 0.4017395802048926
-0.14492704709126195 0.3928117777403643 0.2516691620824132 0.20396150617813416 0.24319040400480482 0.08501476779628923 0.4376025369702567 0.32454162131655245
0.3870291849009179 -0.013344845378669036 0.032640423941396775 0.2321406554147909 0.3590889162410762 -0.03860998120811194 0.3054299104567537 0.5718293982330124
0.31186904345606403 0.2975562635914333 0.330244131899352 0.5525885105069878 0.31148188665895726 -0.014803662605835913 0.38894023812900524 0.3483011338114986
0.315723290617881 0.6934309100972819 0.21613273443995848 0.10905606002196877 0.19985958963857423 0.5593724015998437 0.14014942875189243 0.1980418670178059
0.22871722741518294 0.3293196758094519 0.594113386122775 0.33246109932262063 0.24249440677860748 0.18279241006174768 0.0842439006412255 -0.013082398251301981
0.23532008437934646 0.38667349057283346 -0.020491584597938848 0.44992511731399215 0.16140777313633803 0.029871243944011753 0.15780521824438423 0.02961367539562085
0.23293045013667008 0.09107056996483508 0.28793802849157607 0.2657141576683174 -0.06924110080475673 0.18865865932401474 0.2057329276002217 0.11904171537306826
0.2680849340858174 -0.08905418216354564 0.011091681851734226 0.07542371831053096 -0.18141498548982668 -0.06792531674160789 0.22513927500098652 0.04980911035745515
0.007538456631381004 -0.15149992197987036 0.3970402519102333 0.2980308565859769 0.03870141004671751 0.18288305506681887 0.34266360250606925 0.24805472117468355
0.014673341619435409 0.5426784573174623 0.16368009732032776 0.32763704851417363 0.044240334816404873 0.4767636433140331 0.1300792768234567 0.008583759049434238
0.04228783590978213 -0.09626127482897567 0.23480021476120858 0.32673164248824954 -0.05696947842003538 0.2211579005471714 0.3783541709513488 -0.14809839025810992
-0.000462449520756382 0.15336824305493924 0.3207742830563764 -0.17932166924449003 0.24443211085631822 0.29074843509008247 -0.04629960726490369 0.1651697454551607
0.22780715383301445 -0.018721160805784412 0.3321013199281881 -0.2376895727394441 0.007247647475055944 0.25563601071976005 0.11209911424912558 -0.27734753438866977
0.1243955629210901 0.29343129433728077 0.1567893532456027 0.2704468288986829 -0.04927993472184438 0.18317328371604996 0.30713031026462295 -0.011166351046813622
0.18729414755741328 -0.07555054058261879 -0.033790152600059235 -0.045368786320567636 0.23903232918071596 -0.12468854303477009 0.049217132994522746 0.23179388453967437
0.36704592132723496 0.27333009139081094 0.17171104879988797 -0.036285981484616064 -0.001045809525340356 -0.1784174976261637 0.35123082568286124 0.2635353097725865
0.1368507353593059 0.14605257355585777 0.27183319739467476 -0.12154228204410954 -0.008472923887741192 0.6804395445190746 0.19473092268126144 -0.16931169463953621
0.12301427597362692 -0.20302249310664844 0.18998041332438032 0.19641884463274206 0.09312493655236936 0.0746192533967064 0.013386023142968616 0.34400475740836295
0.04518616828297092 -0.01585751548930093 0.013445269402536316 -0.0136487966877916 0.09019266061021461 -0.007484122358060084 0.3443604953889196 0.2268886725355093
0.023974703465077827 0.11320641538979176 0.2632615745455776 0.21054459954197619 -0.013081763388354034 0.17570573927329045 0.29177489308433385 -0.03690117138416842
0.11062157721091057 0.44503030933841564 0.13726707154123965 0.15207580739140078 0.0010299427286386794 0.4977017486870281 0.33437233873084465 0.27757217270626927
0.4787321825803748 0.18489346642565885 0.29244906090716816 -0.0413045911365901 0.026337055494095474 0.13626284312290543 0.2788364656659694 -0.013394204101596006
0.30351754351559496 -0.028090540429287162 0.16752353730823624 0.1892636474492316 -0.057035482259427554 0.19679952421470268 0.13056017143564053 0.20603054494121198
0.2918357075416183 0.37010209619365414 0.33948840832369975 0.05060174395698551 0.28758365230208216 0.38177931907355245 0.11558010336701677 0.37886482240032293

rnn.weight_hh_l0 f8 [80, 20]
00000000: 8ac4 34f8 9905 bdbf 6a78 9ce7 0826 a83f
00000010: 8f85 1113 9a5c aa3f 3a96 bc09 d68b 9ebf
00000020: 89e6 7aec 5274 683f 29e9 b7bb 7925 d23f
00000030: 738b 07f3 3358 d13f d8e1 04b8 f974 a9bf
00000040: dc13 f28a 3d33 443f f96a 7d17 3513 bcbf
00000050: 9fb8 f5b1 3099 973f ba43 2ed9 a8b0 ad3f
00000060: 00c4 f9ad 48bf b7bf 5722 59d9 a183 94bf
00000070: 1968 cfbe f827 c73f 3b8c 2fd4 557f d03f
00000080: b98c 58c2 37de c93f f03d 0558 4a00 99bf
00000090: b76c d820 0eda 92bf 4057 9448 e337 bb3f
000000a0: 668e 0596 bf26 bd3f e06f f432 78d0 cdbf
000000b0: 7714 3211 05e8 a9bf 5697 34c1 fe5a b7bf
000000c0: 4460 b54b d956 bbbf 3776 6fff e69a cf3f
000000d0: 0202 f2c5 8066 bb3f dd09 67e2 a7f1 d03f
000000e0: 48dc 688c 391e b23f e210 5ee1 0852 7cbf
000000f0: 4d82 ae02 a1e0 adbf c9f1 f6e7 8081 b1bf
00000100: cadb 3946 d534 cf3f fee8 c0a6 c07a a2bf
00000110: 3217 8568 c632 cd3f 8f34 c90f 2ab5 c43f
00000120: cdda cfa4 041e c3bf 47a6 55ce 9399 c6bf
00000130: f23e f631 f092 c2bf 2085 6508 759d a7bf
00000140: f261 05bb add6 cfbf d26d bc73 f597 b83f
00000150: ba0c 6da5 676d 9ebf 6ff4 5d5a 32fc c73f
00000160: 9778 f5d1 71ae bfbf 52d9 bb59 57a7 c8bf
00000170: 3e8f 6722 411f c9bf d460 c115 556d dcbf
00000180: ba4c 0c14 c01f c6bf 9569 2cae 2a1b b33f
00000190: d4b7 0c24 cf35 b43f 783b 74ec 5a92 aabf
000001a0: 33f0 9216 ca1c b9bf 8f7a d65b ed8c a0bf
000001b0: be03 67bb f4c6 b53f fd58 0fd1 c3cf a4bf
000001c0: f7dc 0a1e e753 92bf abde f9a8 f17e aebf
000001d0: 8903 3ea2 dafa 9abf ed99 afef 30a0 d5bf
000001e0: 918d 4afb 747d ca3f 8576 5506 996d b5bf
000001f0: 3359 dfa6 1d3e b43f 5a69 211e 4d83 c4bf
00000200: 4630 b5b1 f9e4 afbf 1916 1bdb 1735 c63f
00000210: 785d 4746 4944 d3bf 0581 b958 f5f0 8fbf
00000220: f6b8 a505 9c0f b23f 7f44 d2f9 1f43 a63f
00000230: eccf 8b1f 9c1a c03f fcd9 d291 7c4a bc3f
00000240: ca62 2158 fe3d a9bf 6fba b721 c3bd c1bf
00000250: ea15 5a48 0d8a c43f d312 ab43 1eef bebf
00000260: 8d95 b944 7041 bdbf 0fd7 c93c 89f9 cfbf
00000270: 1a5b a8f7 397f 903f 7015 559e e081 8dbf
00000280: 64da 6a52 1da8 d4bf 10e0 6e94 5e23 bebf
00000290: c83e 31f9 9632 c93f 29e1 d237 e790 c8bf
000002a0: 8749 72d1 5bb1 d23f 8bd3 cb71 c059 d53f
000002b0: 0a29 1df4 04cd cb3f 1161 57e7 25eb c9bf
000002c0: 2ad0 986e ff27 7fbf 8537 e852 968c c23f
000002d0: 3cf6 5d1e 6e3c bf3f 656f cf4a 5a5b d33f
000002e0: 648f c9af b04b b9bf bdba 3010 4f97 cebf
000002f0: 8658 0c34 9b78 aabf bcbe d0c6 7b16 c33f
00000300: f142 8a0e 9a36 d83f f651 0622 f1a4 d3bf
00000310: 326a 30c5 6c0f cd3f 153e b3ba d4e9 d03f
00000320: 1b4f 5760 2896 aabf 59c0 2790 ed7a d8bf
00000330: fc2c 2a0c a902 d3bf 6410 aeb3 0725 ccbf
00000340: 3885 bb8f 51c4 cd3f 4427 6f71 7777 a8bf
00000350: b386 a203 bcf0 c43f 9861 ec72 8a31 9bbf
00000360: 4d50 0ba9 a545 c9bf 0ccf bca3 7f5a 8fbf
00000370: 427a 8ad6 0f4c d23f 87e2 96e4 54f0 cf3f
00000380: 56f8 b229 5195 ca3f df88 116d 2eb6 a33f
00000390: e3a1 5054 e845 c03f 9929 87d3 7866 a53f
000003a0: 0219 0790 ac7d da3f a2d4 5f31 787f b23f
000003b0: e84e 5765 d150 b73f f246 82a5 cecf a7bf
000003c0: 9bc4 4c51 871f d6bf 7971 b01c a98b c8bf
000003d0: bb7c d5a4 580e ccbf 3c80 b174 f5cc d2bf
000003e0: 545b bcc3 5ab8 c93f cd28 5669 c504 d63f
000003f0: 5173 d3c2 be54 c43f 7680 4179 278c ccbf
00000400: ebd0 1602 d415 dabf ba18 62ac f7f9 cb3f
00000410: 1954 3ed4 4bc4 ba3f 59c5 efd6 333e d63f
00000420: 5330 15d2 28f0 da3f 86f2 43db f8e4 d2bf
00000430: cfda eb89 b7ee d33f 9dec 550e 18b0 d93f
00000440: c267 7789 0964 db3f 044d c19a ba3e e33f
00000450: 6106 d6b5 587f 813f 3fe9 e981 cf8f 9e3f
00000460: 7370 dac5 c985 cbbf 6060 27ea d126 e4bf
00000470: 9027 7584 7f2a babf 1f7d 68c2 2d38 d0bf
00000480: 3c73 06e0 2bba abbf 012f bc7c 7988 bd3f
00000490: ff5d 71d1 5d36 a8bf 9032 27ff cf2c b03f
000004a0: 038c b8d9 1514 92bf 5966 aba4 98ad c6bf
000004b0: 8ac9 0882 827e d33f bbd2 75e1 bd01 cd3f
000004c0: 6b91 b29b c579 e23f 3c3d c9a5 938f e0bf
000004d0: cbf5 c143 6fc3 cfbf da30 d70d 4008 d43f
000004e0: 1db1 463a caf9 c93f c45a 7538 0f04 e53f
000004f0: 7e2e e80c d0f4 d1bf 9ccb c1c4 18a3 d43f
00000500: 2860 c1c5 919b c5bf f4f7 2b7d fff1 a23f
00000510: 687f 1656 870d 99bf 4e61 925d 25b6 b7bf
00000520: f8f3 6e7f f1b5 c13f 0cb6 b344 21ef b6bf
00000530: df51 1c04 63d7 e13f cef0 f030 e406 c63f
00000540: cc35 1c30 0052 ba3f 2e3e 88c1 b12a 633f
00000550: 2a9d 4701 8af4 d03f 2acd 7787 e985 8abf
00000560: c406 984a 581d 98bf 61b4 d39d f213 bf3f
00000570: 00c3 6ab5 c4fa d33f e536 0c84 afb7 9e3f
00000580: a42b a199 e2ec 74bf 7055 2541 9c02 d3bf
00000590: 8c7b 15e9 f292 aa3f 412c 5b81 2775 c93f
000005a0: 3916 cc8c 5843 c63f 93fd 9eb5 5e2a c13f
000005b0: 9d2e 1140 88b5 9bbf d6f9 dd12 d812 c7bf
000005c0: d6af d72a a7c8 b4bf a914 940f 9db8 a73f
000005d0: f6c7 3151 02b5 8abf 5799 d1d6 b852 cc3f
000005e0: f8f3 9c6a 4516 ad3f 28af 6cbb 7e0d cb3f
000005f0: 44b3 b469 f3e6 b03f 39ae 98c0 5f51 b3bf
00000600: 25de 834e 207c 933f 358d 5a1f 5bc3 cb3f
00000610: 6544 b0b4 4b79 cd3f a4b5 0683 a49f bbbf
00000620: 563c a82c c05a c53f d7f8 5e02 7208 c6bf
00000630: 7c9f 239f acb6 cb3f c0dc bb46 103e ba3f
00000640: b518 5ac2 cb15 c83f 6c6d fa13 4417 bbbf
00000650: 4269 4cba 863c 9a3f 4021 7b43 a712 b2bf
00000660: e2d0 6ab9 a685 c63f facf 569b cbc7 ce3f
00000670: 48da 31cf 21ec d63f 26d0 f254 78a4 b2bf
00000680: e834 3036 7fa8 b03f cf60 ab07 4382 d03f
00000690: 1a3a f5c5 25a9 b7bf 95ca b4d4 9fec d03f
000006a0: 8e8a dec1 67c8 c33f 18a8 00c2 262f b83f
000006b0: f099 acdf fde2 ca3f 76d7 0666 704a d53f
000006c0: 9247 38cf b1ed c33f cd61 27fa 989d b3bf
000006d0: ddfc 8e11 a206 d63f ae57 cc73 35d6 863f
000006e0: d8de e12d 1ec9 a53f 0e85 2a0f ebc5 bc3f
000006f0: bab4 0a0e aa97 b6bf 2063 45c5 1511 8c3f
00000700: 13b1 d6ad 66e7 c13f 1f6e 5ff5 b008 b1bf
00000710: eed3 cb47 d511 b6bf d15c 2837 d3b2 b8bf
00000720: a7fc 39fd 9af8 b13f 671a 6404 b231 b03f
00000730: c14f b1ca 8c1c c93f c08f afce 6ce5 b73f
00000740: 6b84 7c84 dd49 953f c49c bfd3 530d bd3f
00000750: ec47 e040 6f40 ce3f a783 3d27 ad09 c13f
00000760: 4f1a ed98 9d5a c43f 92f7 1d67 3f67 c73f
00000770: d958 d2ce 3fe0 993f a60f 9814 1bcd d03f
00000780: 75a9 99ba 1f64 ba3f c8ad 0653 1b5b c6bf
00000790: d9e5 06d2 945a b5bf 8240 bfa6 9b86 b3bf
000007a0: 67dc a2c7 96d3 cd3f f492 6ef3 2b6e 983f
000007b0: 0bf3 687c a918 c1bf c39f 6efe 2f10 a1bf
000007c0: 9ead beec 1c66 923f 82b0 7bbd 78df c4bf
000007d0: 97c2 5b7e f11c b53f 347c 1cf6 ce2a c1bf
000007e0: 067c c823 616a af3f 5ffa 249e d34d c43f
000007f0: 8c87 510b b1e1 b13f 01dc f8b8 dbb2 cdbf
-0.11336672124595473 0.04716518237386043 0.05148774607438177 -0.029830307335165986 0.0029851550678728395 0.28353732425570627 0.27100847943636736 -0.04972057696653892
0.0006164598943462179 -0.10966808150753228 0.02304531179600444 0.057988430510824654 -0.09276251075222319 -0.02003338708007826 0.18090733830359865 0.25777192803633725
0.202094049354036 -0.024415170309394385 -0.018409939532017385 0.10632153055152305 0.11387250340117702 -0.2329244850924388 -0.05059829554469613 -0.09123222557954355
-0.10679395769455008 0.24691474411422273 0.1070328219666479 0.2647494994127138 0.07077369382828735 -0.006914171875795657 -0.05835440786109256 -0.06838231719206712
0.24379983834270852 -0.03609277759137973 0.22811203101644534 0.16177869578169576 -0.1493535809274448 -0.17656180930070972 -0.1451091999010639 -0.046123177790614145
-0.2487389720142939 0.09606870723330665 -0.029714221450615176 0.18738393223239622 -0.12375556350659377 -0.19260684854061566 -0.19626630954655327 -0.4441731178717536
-0.17284394244106754 0.07463328125269293 0.0789460623752512 -0.051897851337449674 -0.09809554148790837 -0.03232518907610881 0.08506707740072181 -0.0406476204586159
-0.017898188789982474 -0.05956225574203463 -0.026347557213287884 -0.3379022923167259 0.2069536425598071 -0.08370357899317511 0.07907281230959455 -0.16025699588028425
-0.06229381841930652 0.17349527548337632 -0.3010428606334794 -0.015596310396347688 0.07055068147539942 0.04348087238862152 0.12581206837023673 0.1105115753187888
-0.04930109811602319 -0.13860358377810963 0.1604630091934916 -0.12083615448052436 -0.11427976301054894 -0.24980273693261565 0.016110330334494362 -0.014407877761764637
-0.32276089714597433 -0.1177271950135721 0.19685637633891973 -0.19192209459084467 0.2920751138091408 0.33360301125440434 0.2171941940271796 -0.20248864932978752
-0.007606504231763048 0.1449153809375582 0.12201584092505241 0.3024507265633843 -0.09881119052584847 -0.23899257936996846 -0.051701402762931045 0.14912364204200468
0.37833262844019006 -0.3069422561905236 0.22703323009848614 0.26427191002309885 -0.05192686248815744 -0.3825029285208124 -0.29703737438167344 -0.2198800685256429
0.2325536681956153 -0.04778645763106096 0.1635966317890528 -0.026556170715680588 -0.1974379611407379 -0.015309331116078372 0.28589244796049595 0.24952183877555376
0.20768179451073604 0.03849930840876125 0.12713340870801834 0.041797424145971714 0.41392053666312745 0.0722575302641695 0.09107693409105944 -0.046507318214151896
-0.3456743520683376 -0.19176210308877353 -0.2191878132680126 -0.2937596931060431 0.20093855435762953 0.34404120718739933 0.15883621705043052 -0.22302716656395533
-0.4075822849656691 0.21856590191982211 0.10455774242139206 0.34754653921034656 0.420908169897989 -0.2952253476394521 0.3114451262367028 0.40137292289700516
0.4279807894177986 0.6014073393402275 0.008543675469584846 0.02984546881132499 -0.215020391090437 -0.6297387669865309 -0.10221096977070787 -0.2534288786427669
-0.05415474996264044 0.11536368651666963 -0.04728978330302524 0.06318378428768257 -0.0176547445427211 -0.17717273750786225 0.3045965452066858 0.22661565312195883
0.5773647347419176 -0.5175264585504133 -0.2481516915176328 0.31300355292911564 0.20293548436655665 0.6567455389693682 -0.2805671812099958 0.32245463575889644
-0.16881010204338165 0.03700254824614993 -0.024465670232188513 -0.09262307676761347 0.13836497042021256 -0.08958633353514517 0.5575423317227964 0.17208530797677785
0.10281373190465287 0.0023396941944680205 0.2649254810807685 -0.012950729796080102 -0.0235494418648219 0.12139812806317841 0.3121806880617868 0.02999757998900678
-0.005108723789883838 -0.29703432428262655 0.051902380898119466 0.19888776603906602 0.17393023371566743 0.13410552852836286 -0.02705967799219754 -0.180262574398468
-0.08118672176323058 0.046330364371934 -0.013040559866769979 0.22127447594830116 0.05681054045133033 0.21134933616246454 0.06602403002461893 -0.0754604191976619
0.01902819136827651 0.2168992903799364 0.23026415178950113 -0.10790470312959727 0.16683199100995932 -0.17213273158808448 0.21651227732149525 0.10250951506519623
0.18816515912857815 -0.10582375991582688 0.025621514435536293 -0.07059712789044159 0.17595371297432566 0.2404722698680642 0.3581623576532462 -0.07282211374223432
0.06507105896908494 0.25795055150002794 -0.09242473681408861 0.264442403527178 0.15455338445925232 0.09446947323218102 0.2100522367629334 0.33266839946315174
0.1556913625541339 -0.07662349803229702 0.3441548510999846 0.011150758358365067 0.04255003271185637 0.11239499206796585 -0.08825171320741534 0.01370446213029336
0.1398743008443338 -0.06653886786028139 -0.08620961191975571 -0.09647865387556755 0.07019966776168705 0.06325829131319836 0.19618377587414496 0.09334449811973311
0.020789586268737652 0.1134846107448651 0.2363413874414272 0.1331077996829013 0.15901536910151257 0.18283836874973908 0.025269505499260745 0.2625186635125324
0.10309027009649248 -0.17465535692222844 -0.08341341140376048 -0.0762727052781447 0.23301968334064613 0.023857771618753312 -0.13356512617783553 -0.03332662564144997
0.017967655133970355 -0.16306981327159425 0.08247289023325731 -0.13411890999938836 0.06135848581129015 0.15862508031746622 0.06985003019647545 -0.23202082187501108

rnn.bias_ih_l0 f8 [80]
00000000: 373f 88e8 a8c1 963f 393e c5cf ec82 d43f
00000010: a6ca 8cfd ad2e cb3f c599 19ea 62a2 c73f
00000020: 4045 de47 b151 d73f f001 c92d acd8 a53f
00000030: b5cb dce1 b7ca d13f 09ea d542 baa4 e13f
00000040: b98f 5e20 feac d23f efec 8411 5504 c3bf
00000050: 5209 756a 8618 b03f 07a9 591f 07e4 ae3f
00000060: 5407 d11e bab7 c83f c7f1 4c2c 8b45 b03f
00000070: 91f7 3137 d3a9 a63f 2f7d e5ce bb34 c93f
00000080: de76 3f16 5949 c63f 6cac 9e39 cff6 da3f
00000090: 1241 61dc 2b78 af3f 94ed e9a2 4c26 c63f
000000a0: def4 d586 561c c6bf 0c05 74f7 a535 b2bf
000000b0: f4ec 0859 42c8 96bf d887 a7a7 7580 c63f
000000c0: 3e5b 9ec6 a63f 89bf b7d6 1eea f10d c83f
000000d0: 078a 6714 3c3f c9bf 4539 fa64 14e0 a73f
000000e0: 34b4 237a 5fec c4bf e444 418f 1fbd a83f
000000f0: edde 2dc4 cc84 c6bf 0f7a abe3 9245 b43f
00000100: 70c0 20a7 ac69 be3f 3178 f55f 457e 973f
00000110: 552f bbfc 1704 c9bf f659 cf05 9cd2 cdbf
00000120: 767d 5f9f 0d0a c6bf 4d57 6ced db6c b9bf
00000130: 2c7b ef82 6514 9ebf a4ed 81c5 5e9c c43f
00000140: f92b 051e 6f8d 6abf b468 bc3e b640 d2bf
00000150: a298 8b15 c2f4 b8bf 24b7 d031 f193 a83f
00000160: d082 a7b6 a1cf cbbf 9509 c638 c8ef ab3f
00000170: 152f e9f9 1d88 c7bf 780f fe38 b7ba a0bf
00000180: f3da 2382 20e9 c9bf 9bb3 ace2 f40f cd3f
00000190: 856d 04e0 b466 a2bf c05f e33b 6d47 c53f
000001a0: 45c7 9913 9610 ba3f 5430 fabe 600e b53f
000001b0: ed66 6b22 d6f9 c9bf 1be7 8044 9504 cb3f
000001c0: 9263 bad8 3e3d bebf a65d 6a38 98a9 cb3f
000001d0: dd0e 903d e356 bcbf 5566 f742 c002 c63f
000001e0: dfd3 6a75 d7ff d63f e689 ac6e 5982 d63f
000001f0: 950f 5cb1 b199 a63f 3f05 5dc2 075d d13f
00000200: c1b1 9774 006a d73f 0ee7 4f9d 8669 d43f
00000210: c7e5 8605 803f d73f f620 0e12 9a39 d93f
00000220: 1ec6 75e9 06a5 d33f c4ac 3037 226f c93f
00000230: 6df6 3f09 bef2 d13f 5998 9336 eb3f d03f
00000240: 6469 fe1e f25f cb3f 533c f9ce fb01 bbbf
00000250: 590d 4ddd 7791 d33f 79a8 3dcd 6af8 853f
00000260: 6080 a181 167e aa3f 71eb 6389 08d5 d23f
00000270: 9c8d ca41 082a d33f e80a 17c9 e9fc d13f
0.02222312850250249 0.320491030598507 0.2123620498692464 0.18464313917793454 0.36436111467726917 0.042668705548297825 0.27799794251330506 0.5513583474524363
0.2918086353404266 -0.14856971126014382 0.06287422274639212 0.06033346421902946 0.19310690407479092 0.06356115180546516 0.04426441239137014 0.19692180254330924
0.17411340318988427 0.4213140547460117 0.061463709499209554 0.17304380373739703 -0.1727398069741985 -0.07113110820138874 -0.02224830311227506 0.17579527555704888
-0.012328436790807747 0.1879255669752433 -0.19724226948081044 0.046631467176768505 -0.16346353019562943 0.04831789611547224 -0.17592773036061918 0.07918661173196305
0.11879996376296886 0.022942623121132214 -0.1954374298132914 -0.23298979076089638 -0.1721817997158543 -0.09931730791535394 -0.029374681584040704 0.16102203983232954
-0.003241269136343924 -0.28519970060882405 -0.09748471284874197 0.048003709155052726 -0.21727391642254767 0.05456376736676131 -0.18384146406821658 -0.032674527842600776
-0.20242697100157833 0.22704945629211867 -0.03593983873926291 0.16624226974704293 0.10181558588535917 0.0822506395581411 -0.20293690376893583 0.21107736439608335
-0.11812203208172736 0.2161131167856471 -0.11070080044742832 0.1719589545235062 0.3593653341916347 0.35170589263921526 0.04414134302172027 0.27130311947628977
0.3658448351477795 0.31894078600417763 0.36325073756924237 0.3941407371826381 0.30694744871934343 0.1987040299876296 0.28044081595712705 0.25390129403820577
0.21386553300255706 -0.10549901774469221 0.3057536755697661 0.010727724445775732 0.05174322445304891 0.29425252358458126 0.29944044518398427 0.28106159818359666

rnn.bias_hh_l0 f8 [80]
00000000: e083 883e 24e3 d03f 413e c58f 1f27 df3f
00000010: a6ca 8cbd bc53 cb3f 7e98 9979 ddfe 64bf
00000020: 4145 de67 948d d43f 8340 72eb a2e4 c63f
00000030: afcb dc69 0b10 d73f 09ea d562 13a5 e13f
00000040: b88f 5e20 5eeb d43f 1113 7bae 17cf c33f
00000050: 4f09 750a 6811 bf3f 862b 5370 b88b b9bf
00000060: 5874 10ed 57ec 833f 723c 131b 1f16 d03f
00000070: e1fb 98fb c906 b43f 66fa cadd 0b7d bb3f
00000080: e276 3f56 7f42 c83f 9a58 3df3 a2d6 c23f
00000090: ecbe 9e23 ddb6 abbf 30b6 a70b dfe7 ab3f
000000a0: 6d16 5432 8a8d b93f 02fb 8bc8 50be b63f
000000b0: b3c4 bd29 bd0e be3f 2d78 58d8 b59c c2bf
000000c0: bae5 696c 5e6e c9bf 5f6b 0f55 c2ae d03f
000000d0: 6450 3ca3 9507 9fbf 6172 f4c9 ea6d 9f3f
000000e0: 9f68 4754 614e b4bf 2b51 d0a3 fb48 c63f
000000f0: cf7b b710 9ac5 a1bf f0bc d5b1 1ae4 c13f
00000100: 623f df38 bb8d bebf d643 05d0 8c29 a8bf
00000110: 552f bb9c 444c c9bf b298 c268 ca3f af3f
00000120: f304 41c1 8e7a b53f 4b57 6c2d 3095 b7bf
00000130: d9de bbe0 39b2 b0bf a4ed 8145 9389 c33f
00000140: b014 781c 5ef5 c1bf ae73 3914 d64d 903f
00000150: 52cc c58a 0bfa cbbf 0cd2 8bd3 0caa c7bf
00000160: d282 a716 290c c9bf 2ffb 9ce3 ba79 bebf
00000170: f4d0 1676 0d41 c13f cc83 3f2e e551 c5bf
00000180: 9028 e1ee 8bf2 993f 0363 9aea fe55 9dbf
00000190: 7892 fb1f 6678 a83f 9340 39c8 5d5c b0bf
000001a0: 7f8e 3327 acef a93f bfe7 82a0 93f1 cabf
000001b0: 1f32 293b c72c b33f 9473 40c2 32d8 d13f
000001c0: 8563 baf8 8968 b7bf aa5d 6af8 0054 c63f
000001d0: 28f1 6f42 0954 b83f ab99 083d b4c8 c2bf
000001e0: cb4f abd5 b73e ba3f ec89 acae 6143 d33f
000001f0: 101f b862 d49b 903f 1554 d025 babf 903f
00000200: 7d63 2fe9 5ad1 ce3f 26ce 9f3a 7a00 c03f
00000210: d4e5 86fd 1496 d03f f620 0ef2 37e7 d93f
00000220: 9018 d725 4ada b63f dd66 85b9 4628 903f
00000230: d2ec 7f52 7b79 cf3f bc30 27ad bd5f cc3f
00000240: 384b f3f7 770f 963f 9fc3 06b1 2a2c b23f
00000250: d61a 9afa cd5d c23f 19b5 a7b9 271b b43f
00000260: 1560 68c0 de9e c83f f4d6 c792 4029 c13f
00000270: 6593 ab71 71db a9bf db0a 1769 4e68 d93f
0.26386362177623646 0.4867628959663968 0.21349295859689227 -0.0025629354175178967 0.32114133971579767 0.17885242935563292 0.3603542836964903 0.5514008455641611
0.3268657032115203 0.15475746173446983 0.12135935073186953 -0.09978821508700095 0.009728133127334157 0.25135018962914224 0.07822859184760446 0.1073768059240848
0.1895293398983347 0.14717518689093795 -0.05412951526466067 0.054503412411446184 0.09981597641680091 0.08884148498689728 0.11741239804338725 -0.14540741981267172
-0.198680689751013 0.26066644961036006 -0.03030237015543981 0.030692738128993095 -0.07932098682013809 0.1741022634383936 -0.0347107072263878 0.1397736900648634
-0.11935014856794404 -0.047192001717696705 -0.1976400151528376 0.06103355912027676 0.08390133112063207 -0.09212018116917624 -0.0652195142428086 0.15263596433565596
-0.14030052557078454 0.01592192171516487 -0.2185682704544854 -0.18487701730158823 -0.19568360906762067 -0.11904495293582039 0.13479774728842353 -0.16656174429138415
0.025339304404305596 -0.028648360318217502 0.04779357090391029 -0.06390939844391345 0.050656680856062224 -0.2104973348376102 0.07490201181753563 0.27882069559000766
-0.09143888781035343 0.17443859223997765 0.09503229019168613 -0.14675000171810146 0.10251950232060307 0.3009876447487432 0.016219442868560086 0.01635638099476829
0.24076401124946392 0.12501457083236395 0.2591602779244486 0.40473745954706375 0.08926833556970082 0.015778641770657898 0.24589482811265967 0.22167178110828967
0.0215433831297773 0.07098643133100645 0.14348768936561979 0.07853935511203182 0.19234833140285504 0.13407141844771042 -0.05050234329772855 0.39699135077186803

rnn.weight_ih_l1 f8 [80, 20]
00000000: c3ec 1ed5 6b1d 9ebf c9cd a89d a32b d3bf
00000010: db1a ad8d 5693 b2bf fa8d 048d 953c d4bf
00000020: 19f0 1067 eb51 cf3f d264 c5ca 6f62 98bf
00000030: 01d1 6c12 39ba d9bf b94a e396 3477 e1bf
00000040: a84e ccf3 d430 cdbf 3328 53b3 5108 d83f
00000050: f477 c5f1 3097 dc3f accb 5b84 1019 d23f
00000060: dc6a 8478 34bb b2bf d499 cd38 ab98 c5bf
00000070: a6df 01b8 afe3 bdbf f024 5c2c d14e d03f
00000080: 26e7 bbb4 ec45 d53f d4a2 51e4 d4c4 dc3f
00000090: a5a0 94d9 ebfe a7bf 0ca0 a27a 361f c63f
000000a0: dd46 7802 8b95 d4bf 431d b9de 7b1d dbbf
000000b0: 6004 e8dd 7fb4 c4bf db9b d070 6ba3 d7bf
000000c0: 906d c531 3c48 c3bf 05b1 9273 0325 aa3f
000000d0: 8ce1 a9b5 7322 d13f 177e 8441 6016 c7bf
000000e0: fa77 426b 0e40 bdbf 11f2 1d49 1b27 b43f
000000f0: f638 24e7 798b c9bf ffad b229 1506 d03f
00000100: 1b9f 72d3 dc2e ce3f 667a aaf0 1b3a cebf
00000110: 2d8c 4e2d 21b0 d33f 0c70 44e6 0384 d83f
00000120: 6a0a 3f63 5813 c33f 6502 c74d a3e5 c03f
00000130: 0b82 03a3 5acd cd3f b907 34ff 2fe3 bd3f
00000140: 880a 73db ae19 d5bf 227b 5736 6409 d6bf
00000150: e600 c4b8 d765 933f 686a 1aa8 a877 a33f
00000160: 5617 686a 73cb d83f 8079 2706 ac55 c43f
00000170: 591d 3ac2 7f0d de3f 2851 f33e 3d76 c7bf
00000180: d3b2 25ac 0925 8b3f 59f7 fabc 5cc4 d23f
00000190: 9ca8 0c4a 7fb1 b23f 8f58 9690 4ca3 cf3f
000001a0: 5d16 2c2f 55e3 80bf 50ad e7cd 7641 b7bf
000001b0: 6f4a 7950 bd74 c63f e05d 1620 30a9 cd3f
000001c0: 49ea 4d9d 7c96 9c3f 5891 3a20 c750 cb3f
000001d0: 88c5 b81f 6c0d d23f 8ef8 4e93 e551 9c3f
000001e0: 2c2f 1aab 38b9 b0bf 9c22 73df 7ac6 b4bf
000001f0: 3af9 eae0 98dd cdbf 6e80 a86e f8e5 bd3f
00000200: 7d4a 38e7 74d6 d53f fafd 0666 c7e8 cd3f
00000210: 54df ad9a 6185 d43f 42b2 a1b7 dc5b d8bf
00000220: e352 1cca 10e2 b4bf e15f 3c94 ce1a 77bf
00000230: b6a7 d7fc 22fb cf3f f18b cee3 6651 cb3f
00000240: 578b 0056 a475 b0bf 363a f048 1570 d0bf
00000250: 9863 304d 15cf bb3f c36d 54c7 7b06 cc3f
00000260: 15f3 5a23 14ce cd3f c226 2661 76f5 b0bf
00000270: 93c6 d614 4774 b83f 48b6 4e85 d39c 4c3f
00000280: 2d16 6ceb b3ab d3bf 493f 042e e83c 743f
00000290: 5ab5 143a abca d7bf 6f8b 4f96 9022 c1bf
000002a0: 330a f83f 9844 d63f 1be5 3dd5 f76c 9c3f
000002b0: 3adc 1842 1e5b da3f d905 c649 e7f4 d43f
000002c0: 10b6 5f3a 8685 bfbf 5920 bd16 8f02 893f
000002d0: bb53 e424 684d c83f 2af0 bdaa de43 d43f
000002e0: 5c73 57e2 b760 89bf eb46 bae8 5bd6 cdbf
000002f0: a5e5 e55b cb31 9a3f 3530 3650 0c0d c63f
00000300: fe9a 9d81 167b c93f f048 c89c a014 d33f
00000310: 0b2f f327 ad3a d43f f78c 874f bb84 e03f
00000320: 17e6 e60c 82a5 9f3f 48e1 3500 cebf 60bf
00000330: e820 8f30 0ef6 b1bf 48d3 0780 0c90 c7bf
00000340: a11c e122 801d abbf 7a3a 34fd 83a0 bcbf
00000350: 6b6f cca7 6f9e c13f d45f 5740 81a0 a2bf
00000360: 32f5 36c4 0d11 8e3f 725e 3471 fd55 9e3f
00000370: 55ad 4411 9691 aa3f 2de0 1f3c 3848 bfbf
00000380: 81bd 7b55 9428 c83f 64f6 769e 8912 c13f
00000390: 0dd6 30f0 7cbf c1bf 94d1 37bf 61ab 6a3f
000003a0: 4175 6b80 1046 c43f c513 d4c9 a16a b0bf
000003b0: 189d 0fc7 3790 a73f a2dc a8cb 5eb2 9f3f
000003c0: 4c69 7450 bd8f bf3f 2b29 660c 13df bfbf
000003d0: d97c 1c86 686d c23f d125 9139 a763 c6bf
000003e0: 173c 1b2f 2143 d33f f5fd 1a98 17cb d13f
000003f0: d8cd 1af7 dc5e c63f 57dd 69a2 d4d9 b5bf
00000400: 2be1 481a b0b5 d0bf 0324 4f8c 9605 c83f
00000410: a3fc 8c28 04f5 c53f 615b fdb0 8b9a a2bf
00000420: b051 151a 4c9e 893f c93c 6f51 f4ed a83f
00000430: 56eb 7db3 f8ac c53f ceaa 495a e518 c03f
00000440: 2e6f 778b eb49 ca3f d858 dec6 6ce0 d43f
00000450: aa74 3271 d3a5 babf 866a 0726 be5a b2bf
00000460: b7d7 9f1e bd5f cdbf 7d1c 5056 8c12 af3f
00000470: ae70 7487 6eb4 d1bf 229c 77bb 9698 a03f
00000480: 52dc 507c 2b3e c03f 6b9d dba3 41be bcbf
00000490: 5a6f f30d 5d08 d63f e01e 6f75 e68b b8bf
000004a0: 169a 4be0 5090 bdbf ceaf 3d24 24a1 aa3f
000004b0: d6a4 431f a182 a7bf 1495 4e99 4b9f b33f
000004c0: e053 3aea 7dd4 c33f 5c6e b316 cc52 d5bf
000004d0: 0b65 884a b7f5 cd3f 2794 9c12 cf2f c93f
000004e0: 2d21 45b6 786e a73f 14a7 6674 bb26 d63f
000004f0: 8535 1710 a9d4 d03f dd8e 19e6 45ec c53f
00000500: 27b7 53aa 2a5c b73f f4c1 15dd 74b5 c5bf
00000510: f837 b3ea d070 dabf d307 9f46 ac73 d1bf
00000520: 8a03 2679 156a cbbf 90f6 18d7 227e a7bf
00000530: c42f 67ab bac2 e13f 8735 b106 826b d6bf
00000540: 2d00 1eb6 7669 b2bf b1ae 30a1 4669 d03f
00000550: 11c3 cd4e 1540 76bf 9b07 068b 9024 c53f
00000560: f763 5dc3 7300 a2bf d8c9 53ed a4e1 b3bf
00000570: faa8 e2ae e226 d33f c46a 87ca 4ffb e03f
00000580: 22b8 d7e9 6f17 a23f a798 dccb 6896 bcbf
00000590: 1de9 0858 238f 8d3f 6b4e 5621 f73d d83f
000005a0: e990 6136 acbc c33f ed77 7d31 e0e9 dcbf
000005b0: 47f4 2c96 f480 dfbf fdc3 f85a 9f59 debf
000005c0: 4952 0348 11ec e6bf e97b 06ca e231 d2bf
000005d0: 3411 30db 0ad8 d23f 7f2a cb81 9e0d ecbf
000005e0: 6c2c bc23 b886 ccbf 09d2 96e0 079d dd3f
000005f0: ce3b 74c9 5067 cbbf bc07 7fbc 7a12 cf3f
00000600: ad3d 7135 2bb1 d53f 1faa 37c0 b4fa c7bf
00000610: a09d 676d ee12 ccbf 6758 260b 3589 e73f
00000620: 3cef 7c9d d740 c93f 02e2 136d ea72 e13f
00000630: 8e36 0eca 8492 de3f c5bd 6999 a145 d73f
00000640: f56a 501e 5edc d0bf 458a 476f d3c4 cdbf
00000650: a52c f608 cb25 d2bf eac5 089f 9ddd c43f
00000660: b3e6 679d 5c1a ce3f 2668 30be 2573 ba3f
00000670: d618 5c33 5f9e dc3f 097b 01dc 942d c4bf
00000680: f0d6 bd7a 3a4a d5bf de24 f551 f5e5 cf3f
00000690: 3c9a 61a7 f8c6 b93f 218e 2a58 b48e a3bf
000006a0: 7d0b d59e 84a0 cf3f f7c1 f42b 3304 b7bf
000006b0: 9609 0a3f 86ee a43f 6e0a 33ca 7d2c 923f
000006c0: 84dc 56e9 0507 82bf 5bc6 3670 a04e cf3f
000006d0: 2d93 0b03 f4fd a43f 8d58 2acc f500 b53f
000006e0: 712e c26f fe1d acbf 0716 e068 8c2b b5bf
000006f0: 3ca1 1950 7d0c d7bf 03af 5d7c 6768 ccbf
00000700: a16b 4cc4 db8d c53f c50c 131d 0101 d83f
00000710: 7bc0 0d07 5bd8 c4bf 3ae2 559e 6a1b dbbf
00000720: 60a5 2910 8482 c4bf 04b0 e169 4c3c bebf
00000730: e541 32d8 796b b83f 5512 f381 fb4b 913f
00000740: 0834 8fc2 72a8 92bf 0584 ad15 df58 d7bf
00000750: 21da a077 edad 7bbf 4e3e b2a1 c328 c83f
00000760: efa8 059a e078 cc3f 1741 cf7d 3ff6 e43f
00000770: 4228 7507 2277 c1bf 6041 c82b 16fb b6bf
00000780: 14bd 735f 42bf 6e3f a744 99a2 2583 b73f
00000790: 879a b18e 15dd c6bf dc4e 6a0f 2bc7 8cbf
000007a0: 295b 555f 1f0e 9c3f aef4 ab1d fef1 acbf
000007b0: c59b 0721 64c9 d83f ad53 5a19 c3f2 d2bf
000007c0: bb2a 66c9 66a3 cebf 55cf 034f e271 bebf
000007d0: 0265 ebfb 9600 c23f d405 c5ec 5617 5abf
000007e0: 8e89 34f0 9d7c c13f e488 77fd c993 d5bf
000007f0: 5288 a7ba bd50 c63f 1f67 01c3 a313 d23f
-0.029409108050214138 -0.2995385207788926 -0.07256070097819693 -0.3161977650763387 0.24468748600509185 -0.023813006163753432 -0.40199114608118697 -0.5458014437702651
-0.2280527296467103 0.3755077601641716 0.4467279778526738 0.2827798168720459 -0.073169021056326 -0.16872158311453112 -0.11675546877256568 0.2548106129839445
0.33239286088756825 0.44951364800230675 -0.046866770086411415 0.17282753933000128 -0.32162738076395475 -0.42367455244353297 -0.16175840697545407 -0.36934934632375666
-0.15064194135889553 0.051063640459092986 0.2677277826365063 -0.18037036131953307 -0.11425867193835862 0.07872171912271876 -0.19956897531705636 0.25037125656191955
0.2358051331004781 -0.23614835025087472 0.3076250975083806 0.3830575703339043 0.14902787061699324 0.1320079927227368 0.23282940826085538 0.11674785595462724
-0.32969256811717473 -0.34432320887383316 0.01894318642826045 0.038022299309166396 0.387417653954221 0.15886450100419935 0.4695739170787952 -0.18329587529900349
0.0132542377147841 0.2932350011359311 0.07302089269492956 0.2471709924690839 -0.00824610281189136 -0.09084265257813695 0.17543760709175468 0.23172570769086942
0.02791781149015041 0.21340264390631591 0.28206923578098797 0.027656161418911078 -0.06532625367452444 -0.08115356402698598 -0.23332510931317946 0.11679032041183898
0.3412143953329759 0.23366634828379046 0.32064094643964336 -0.3806068223264313 -0.08157448705999175 -0.005640799474143394 0.2498515829641385 0.21342168925647756
-0.06429507350598605 -0.25684101221932865 0.10862858900544692 0.21894786103153593 0.23285152174312232 -0.06624545928766692 0.09552425631297927 0.0008731873336864171
-0.30735490789843106 0.0049408978959631445 -0.37174492523157243 -0.1338673337878293 0.3479366898247093 0.027759430303807436 0.41181141333385407 0.3274477215237233
-0.12313116955893855 0.012211912042076433 0.18986226846086915 0.31664244340913916 -0.012391506762406905 -0.2331042181363537 0.025580575450907656 0.17227319637857055
0.1990688450707338 0.29813399611261016 0.31608132268296235 0.5162025979338115 0.030904800450775562 -0.0020445846036489003 -0.0701607578804474 -0.18408352138035355
-0.052959446199161826 -0.1118242734121199 0.13764758771219063 -0.036380805114901854 0.01468096499490432 0.029624900850733167 0.051891984565680595 -0.12219573467143681
0.18873838590614514 0.1333782218697933 -0.13865625122132066 0.003255549346926576 0.1583881976174926 -0.06412707498027632 0.04602217011398063 0.030953866176983376
0.12328704084612702 -0.12449759533607067 0.14396387623216958 -0.17491617499244552 0.3009722671531007 0.2780207620052971 0.17476999345454547 -0.08535508122610246
-0.2610893494306931 0.18767053462059388 0.1715398023606883 -0.03633533988493443 0.012508959337233033 0.04869044775079485 0.16934117092372486 0.12575976284582285
0.2053808623303381 0.3261978094173066 -0.10409280313111205 -0.0716971247524417 -0.22948421473819078 0.06068838647484485 -0.27663768032085556 0.03241416014116562
0.12689727373228493 -0.11227808237491892 0.34426046717066117 -0.09588470809023475 -0.11548333621940574 0.05201065962214067 -0.045918498102602776 0.07664940350385435
0.15492223679453243 -0.33317854134449987 0.23406115664764857 0.19677151116153022 0.045764705896149095 0.3461140286186588 0.26297976085046343 0.17127298102706492
0.09125010164617874 -0.16960011286893428 -0.41313574714592916 -0.2726851167354855 -0.21417492309049307 -0.045884217030544794 0.5550206515995275 -0.35031176236665157
-0.0719217486021086 0.2564255308268271 -0.00543220828409187 0.16517836368808222 -0.03515970001053142 -0.07766180795787336 0.29924838141108945 0.5306776958126069
0.035335061354871536 -0.11167006470768347 0.014433170436963178 0.3787820649679136 0.15419533400848387 -0.4517746432592265 -0.49224581399522943 -0.47422012218436277
-0.7163168341163068 -0.28429479340587577 0.2944361820703023 -0.8766624960929476 -0.22286130661845804 0.462709397626242 -0.21409044109938552 0.24275144771496382
0.3389385244272159 -0.1873384417115895 -0.2193277391627193 0.7354989259499803 0.19729132833333007 0.5452777986930075 0.47769279224380845 0.36362495404952383
-0.26345017395367104 -0.23256915029112882 -0.28355670809896544 0.16301317468018733 0.2351794975837059 0.10331951039589224 0.44716625228501294 -0.15764103643865493
-0.33265554415207443 0.24920526983104357 0.10069231115776572 -0.038198123705367466 0.24708612208823047 -0.08990783522745703 0.04088229674836723 0.017747846094389556
-0.008802457984400165 0.24458699683377713 0.04100000893757847 0.08204590067393465 -0.05491633524169693 -0.08269574699814806 -0.3601372987964344 -0.2219361645942329
0.16839167675865688 0.37506130065248683 -0.16285264820499265 -0.4235483690495446 -0.16023302830880493 -0.11810758194923215 0.09538995292883319 0.016891412550437874
-0.018220704197847964 -0.36479928128216016 -0.00675766716636031 0.18874402423215247 0.2224388839779929 0.6550595719545836 -0.13644814838545655 -0.08976877755072143
0.003753308901302108 0.09184489459700505 -0.17862195460766747 -0.014051758201538637 0.027397623246851275 -0.05653375732615849 0.3872919390254846 -0.29606702304709637
-0.23936161836566847 -0.11892523221086766 0.14064299870259594 -0.0015924786449236132 0.13661550740023326 -0.3371453261626256 0.17433902372346438 0.282448711810149
